…
\n","            {'out_channels': 64, 'kernel_size': 3, 'stride': 1, 'padding': 1},\n","        ],\n","        dense_layers=[\n","            1024, 256\n","        ]),\n","    gamma=0.95,\n","    epsilon_start=1,\n","    epsilon_decay=0.90,\n","    epsilon_end=0.01,\n","    memory_size=10000,\n","    batch_size=64,\n","    target_update_interval=5\n",")\n","trainer = MultiAgentTrainer(env, agents, reset_agents=True, seed=0)\n","agents[0].qnetwork"],"execution_count":35,"outputs":[{"output_type":"execute_result","data":{"text/plain":["ConvQNetwork(\n","  (network): Sequential(\n","    (conv2d_1): Conv2d(6, 32, kernel_size=(3, 3), stride=(1, 1), padding=(1, 1))\n","    (conv2d_act_1): ReLU()\n","    (conv2d_2): Conv2d(32, 32, kernel_size=(3, 3), stride=(1, 1), padding=(1, 1))\n","    (conv2d_act_2): ReLU()\n","    (conv2d_3): Conv2d(32, 32, kernel_size=(3, 3), stride=(1, 1), padding=(1, 1))\n","    (conv2d_act_3): ReLU()\n","    (conv2d_4): Conv2d(32, 64, kernel_size=(3, 3), stride=(1, 1), padding=(1, 1))\n","    (conv2d_act_4): ReLU()\n","    (conv2d_5): Conv2d(64, 64, kernel_size=(3, 3), stride=(1, 1), padding=(1, 1))\n","    (conv2d_act_5): ReLU()\n","    (conv2d_6): Conv2d(64, 64, kernel_size=(3, 3), stride=(1, 1), padding=(1, 1))\n","    (conv2d_act_6): ReLU()\n","    (conv2d_7): Conv2d(64, 64, kernel_size=(3, 3), stride=(1, 1), padding=(1, 1))\n","    (conv2d_act_7): ReLU()\n","    (flatten): Flatten(start_dim=1, end_dim=-1)\n","    (dense_1): Linear(in_features=3136, out_features=1024, bias=True)\n","    (dense_act_1): ReLU()\n","    (dense_2): Linear(in_features=1024, out_features=256, bias=True)\n","    (dense_act_2): ReLU()\n","    (dense_3): Linear(in_features=256, out_features=5, bias=True)\n","  )\n",")"]},"metadata":{},"execution_count":35}]},{"cell_type":"code","metadata":{"id":"Fiqt2dVBUy1b","colab":{"base_uri":"https://localhost:8080/","height":1000},"executionInfo":{"status":"ok","timestamp":1714504069287,"user_tz":-120,"elapsed":43740,"user":{"displayName":"Patrick Romand","userId":"05172196816578094666"}},"outputId":"48f9c7d5-887b-4
…
